ir_version: 3
producer_name: "MATLAB Deep Learning Toolbox Converter for ONNX Model Format"
producer_version: "18.2.5"
domain: ""
doc_string: ""
graph {
  node {
    input: "input"
    input: "input_AvgImg"
    output: "input_Sub"
    name: "input_Sub"
    op_type: "Sub"
  }
  node {
    input: "input_Sub"
    output: "Operation_1_Flatten"
    name: "Operation_1_Flatten"
    op_type: "Flatten"
    attribute {
      name: "axis"
      i: 1
      type: INT
    }
  }
  node {
    input: "Operation_1_Flatten"
    input: "Operation_1_MatMul_W"
    output: "Operation_1_MatMul"
    name: "Operation_1_MatMul"
    op_type: "MatMul"
  }
  node {
    input: "Operation_1_MatMul"
    input: "Operation_1_Add_B"
    output: "Operation_1_Add"
    name: "Operation_1_Add"
    op_type: "Add"
  }
  node {
    input: "Operation_1_Add"
    output: "relu_1"
    name: "relu_1"
    op_type: "Relu"
  }
  node {
    input: "relu_1"
    input: "Operation_2_MatMul_W"
    output: "Operation_2_MatMul"
    name: "Operation_2_MatMul"
    op_type: "MatMul"
  }
  node {
    input: "Operation_2_MatMul"
    input: "Operation_2_Add_B"
    output: "Operation_2_Add"
    name: "Operation_2_Add"
    op_type: "Add"
  }
  node {
    input: "Operation_2_Add"
    output: "relu_2"
    name: "relu_2"
    op_type: "Relu"
  }
  node {
    input: "relu_2"
    input: "Operation_3_MatMul_W"
    output: "Operation_3_MatMul"
    name: "Operation_3_MatMul"
    op_type: "MatMul"
  }
  node {
    input: "Operation_3_MatMul"
    input: "Operation_3_Add_B"
    output: "Operation_3_Add"
    name: "Operation_3_Add"
    op_type: "Add"
  }
  node {
    input: "Operation_3_Add"
    output: "relu_3"
    name: "relu_3"
    op_type: "Relu"
  }
  node {
    input: "relu_3"
    input: "Operation_4_MatMul_W"
    output: "Operation_4_MatMul"
    name: "Operation_4_MatMul"
    op_type: "MatMul"
  }
  node {
    input: "Operation_4_MatMul"
    input: "Operation_4_Add_B"
    output: "Operation_4_Add"
    name: "Operation_4_Add"
    op_type: "Add"
  }
  node {
    input: "Operation_4_Add"
    output: "relu_4"
    name: "relu_4"
    op_type: "Relu"
  }
  node {
    input: "relu_4"
    input: "Operation_5_MatMul_W"
    output: "Operation_5_MatMul"
    name: "Operation_5_MatMul"
    op_type: "MatMul"
  }
  node {
    input: "Operation_5_MatMul"
    input: "Operation_5_Add_B"
    output: "Operation_5_Add"
    name: "Operation_5_Add"
    op_type: "Add"
  }
  node {
    input: "Operation_5_Add"
    output: "relu_5"
    name: "relu_5"
    op_type: "Relu"
  }
  node {
    input: "relu_5"
    input: "Operation_6_MatMul_W"
    output: "Operation_6_MatMul"
    name: "Operation_6_MatMul"
    op_type: "MatMul"
  }
  node {
    input: "Operation_6_MatMul"
    input: "Operation_6_Add_B"
    output: "Operation_6_Add"
    name: "Operation_6_Add"
    op_type: "Add"
  }
  node {
    input: "Operation_6_Add"
    output: "relu_6"
    name: "relu_6"
    op_type: "Relu"
  }
  node {
    input: "relu_6"
    input: "linear_7_MatMul_W"
    output: "linear_7_MatMul"
    name: "linear_7_MatMul"
    op_type: "MatMul"
  }
  node {
    input: "linear_7_MatMul"
    input: "linear_7_Add_B"
    output: "old_output"
    name: "linear_7_Add"
    op_type: "Add"
  }
  node {
    input: "old_output"
    input: "output_initializer_W"
    input: "output_initializer_B"
    output: "linear_7_Add"
    name: "new_output"
    op_type: "Gemm"
  }
  name: "Network"
  initializer {
    dims: 1
    dims: 1
    dims: 1
    dims: 5
    data_type: 1
    float_data: 0.0
    float_data: 0.0
    float_data: 0.0
    float_data: 0.0
    float_data: 0.0
    name: "input_AvgImg"
  }
  initializer {
    dims: 5
    dims: 51
    data_type: 1
…
    name: "Operation_1_MatMul_W"
  }
  initializer {
    dims: 51
    data_type: 1
…
    name: "Operation_1_Add_B"
  }
  initializer {
    dims: 51
    dims: 52
    data_type: 1
…
    name: "Operation_2_MatMul_W"
  }
  initializer {
    dims: 52
    data_type: 1
…
    name: "Operation_2_Add_B"
  }
  initializer {
    dims: 52
    dims: 52
    data_type: 1
…
    name: "Operation_3_MatMul_W"
  }
  initializer {
    dims: 52
    data_type: 1
…
    name: "Operation_3_Add_B"
  }
  initializer {
    dims: 52
    dims: 52
    data_type: 1
…
    name: "Operation_4_MatMul_W"
  }
  initializer {
    dims: 52
    data_type: 1
…
    name: "Operation_4_Add_B"
  }
  initializer {
    dims: 52
    dims: 52
    data_type: 1
…
    name: "Operation_5_MatMul_W"
  }
  initializer {
    dims: 52
    data_type: 1
…
    name: "Operation_5_Add_B"
  }
  initializer {
    dims: 52
    dims: 52
    data_type: 1
…
    name: "Operation_6_MatMul_W"
  }
  initializer {
    dims: 52
    data_type: 1
…
    name: "Operation_6_Add_B"
  }
  initializer {
    dims: 52
    dims: 7
    data_type: 1
…
    name: "linear_7_MatMul_W"
  }
  initializer {
    dims: 7
    data_type: 1
    float_data: -0.0102815
    float_data: -0.0158668
    float_data: -0.0154823
    float_data: -0.015336
    float_data: -0.0148281
    float_data: -500.0
    float_data: -500.0
    name: "linear_7_Add_B"
  }
  initializer {
    dims: 7
    dims: 32
    data_type: 1
…
    name: "output_initializer_W"
  }
  initializer {
    dims: 32
    data_type: 1
…
    name: "output_initializer_B"
  }
  input {
    name: "input_AvgImg"
    type {
      tensor_type {
        elem_type: 1
        shape {
          dim {
            dim_value: 1
          }
          dim {
            dim_value: 1
          }
          dim {
            dim_value: 1
          }
          dim {
            dim_value: 5
          }
        }
      }
    }
  }
  input {
    name: "Operation_1_MatMul_W"
    type {
      tensor_type {
        elem_type: 1
        shape {
          dim {
            dim_value: 5
          }
          dim {
            dim_value: 50
          }
        }
      }
    }
  }
  input {
    name: "Operation_1_Add_B"
    type {
      tensor_type {
        elem_type: 1
        shape {
          dim {
            dim_value: 50
          }
        }
      }
    }
  }
  input {
    name: "Operation_2_MatMul_W"
    type {
      tensor_type {
        elem_type: 1
        shape {
          dim {
            dim_value: 50
          }
          dim {
            dim_value: 50
          }
        }
      }
    }
  }
  input {
    name: "Operation_2_Add_B"
    type {
      tensor_type {
        elem_type: 1
        shape {
          dim {
            dim_value: 50
          }
        }
      }
    }
  }
  input {
    name: "Operation_3_MatMul_W"
    type {
      tensor_type {
        elem_type: 1
        shape {
          dim {
            dim_value: 50
          }
          dim {
            dim_value: 50
          }
        }
      }
    }
  }
  input {
    name: "Operation_3_Add_B"
    type {
      tensor_type {
        elem_type: 1
        shape {
          dim {
            dim_value: 50
          }
        }
      }
    }
  }
  input {
    name: "Operation_4_MatMul_W"
    type {
      tensor_type {
        elem_type: 1
        shape {
          dim {
            dim_value: 50
          }
          dim {
            dim_value: 50
          }
        }
      }
    }
  }
  input {
    name: "Operation_4_Add_B"
    type {
      tensor_type {
        elem_type: 1
        shape {
          dim {
            dim_value: 50
          }
        }
      }
    }
  }
  input {
    name: "Operation_5_MatMul_W"
    type {
      tensor_type {
        elem_type: 1
        shape {
          dim {
            dim_value: 50
          }
          dim {
            dim_value: 50
          }
        }
      }
    }
  }
  input {
    name: "Operation_5_Add_B"
    type {
      tensor_type {
        elem_type: 1
        shape {
          dim {
            dim_value: 50
          }
        }
      }
    }
  }
  input {
    name: "Operation_6_MatMul_W"
    type {
      tensor_type {
        elem_type: 1
        shape {
          dim {
            dim_value: 50
          }
          dim {
            dim_value: 50
          }
        }
      }
    }
  }
  input {
    name: "Operation_6_Add_B"
    type {
      tensor_type {
        elem_type: 1
        shape {
          dim {
            dim_value: 50
          }
        }
      }
    }
  }
  input {
    name: "linear_7_MatMul_W"
    type {
      tensor_type {
        elem_type: 1
        shape {
          dim {
            dim_value: 50
          }
          dim {
            dim_value: 5
          }
        }
      }
    }
  }
  input {
    name: "linear_7_Add_B"
    type {
      tensor_type {
        elem_type: 1
        shape {
          dim {
            dim_value: 5
          }
        }
      }
    }
  }
  input {
    name: "input"
    type {
      tensor_type {
        elem_type: 1
        shape {
          dim {
            dim_value: 1
          }
          dim {
            dim_value: 1
          }
          dim {
            dim_value: 1
          }
          dim {
            dim_value: 5
          }
        }
      }
    }
  }
  output {
    name: "linear_7_Add"
    type {
      tensor_type {
        elem_type: 1
        shape {
          dim {
            dim_value: 1
          }
          dim {
            dim_value: 32
          }
        }
      }
    }
  }
}
opset_import {
  version: 8
}
